3-min-pytorch/chap3/model.pt (torch_old, 949 bytes, 3 tensors)

linear_1.weight f4 [5, 2]
2.2291257 -1.293778 0.60343784 -0.3526452 -1.5986528 2.4219503 1.4483922 1.5252733
1.1955987 -0.8092406
00000000: ffa9 0e40 849a a5bf e77a 1a3f e98d b4be
00000010: a8a0 ccbf 3c01 1b40 ea64 b93f 283c c33f
00000020: 6109 993f 642a 4fbf

linear_1.bias f4 [5]
-0.39979395 -0.10714884 -0.40685138 0.07037196 -0.323277
00000000: cbb1 ccbe da70 dbbd d34e d0be 2d1f 903d
00000010: 9084 a5be

linear_2.weight f4 [1, 5]
2.5128784 0.6176527 2.808034 -1.9650898 1.103667
00000000: 00d3 2040 7d1e 1e3f d4b6 3340 1088 fbbf
00000010: f644 8d3f
